input: "data"
input_dim: 1
input_dim: 3
input_dim: 300
input_dim: 96
layer {
  name: "conv1_1_new"
  type: "Convolution"
  bottom: "data"
  top: "conv1_1_new"
  param { lr_mult: 0 decay_mult: 0 }
  param { lr_mult: 0 decay_mult: 0 }

  convolution_param {
    num_output: 8
    pad: 1
    kernel_size: 3
   
  }
}
layer {
  name: "relu1_1_new"
  type: "ReLU"
  bottom: "conv1_1_new"
  top: "conv1_1_new"
}

layer {
  name: "pool1_stage1_new"
  type: "Pooling"
  bottom: "conv1_1_new"
  top: "pool1_stage1_new"
  pooling_param {
    pool: MAX
    kernel_size: 2
    stride: 2
  }
}
layer {
  name: "conv2_1_new"
  type: "Convolution"
  bottom: "pool1_stage1_new"
  top: "conv2_1_new"
  param { lr_mult: 0 decay_mult: 0 }
  param { lr_mult: 0 decay_mult: 0 }
  convolution_param {
    num_output: 16
    pad: 1
    kernel_size: 3
   
  }
}
layer {
  name: "relu2_1_new"
  type: "ReLU"
  bottom: "conv2_1_new"
  top: "conv2_1_new"
}

layer {
  name: "pool2_stage1_new"
  type: "Pooling"
  bottom: "conv2_1_new"
  top: "pool2_stage1_new"
  pooling_param {
    pool: MAX
    kernel_size: 2
    stride: 2
  }
}
layer {
  name: "conv3_1_new"
  type: "Convolution"
  bottom: "pool2_stage1_new"
  top: "conv3_1_new"
  param { lr_mult: 0 decay_mult: 0 }
  param { lr_mult: 0 decay_mult: 0 }
  convolution_param {
    num_output: 32
    #pad: 1
    pad_h:0
    pad_w:1
    kernel_size: 3
  
  }
}
layer {
  name: "relu3_1_new"
  type: "ReLU"
  bottom: "conv3_1_new"
  top: "conv3_1_new"
}


layer {
  name: "conv4_1_new"
  type: "Convolution"
  bottom: "conv3_1_new"
  top: "conv4_1_new"
  param { lr_mult: 0 decay_mult: 0 }
  param { lr_mult: 0 decay_mult: 0 }
  convolution_param {
    num_output: 32
    pad: 1
    #pad_h: 2
    #pad_w: 1
    kernel_size: 3
  
  }
}
layer {
  name: "relu4_1_new"
  type: "ReLU"
  bottom: "conv4_1_new"
  top: "conv4_1_new"
}


layer {
  name: "pool3_stage1_new"
  type: "Pooling"
  bottom: "conv4_1_new"
  top: "pool3_stage1_new"
  pooling_param {
    pool: MAX
    kernel_size: 2
    stride: 2
  }
}

##########################################################################
layer {
  name: "conv4_pool1"
  type: "Pooling"
  bottom: "conv4_1_new"
  top: "conv4_pool1"
  pooling_param {
    pool: AVE
    kernel_h: 37
    kernel_w: 12
    stride_h: 37
    stride_w: 12
  }
}

layer {
  name: "conv4_pool1_interp"
  type: "Interp"
  bottom: "conv4_pool1"
  top: "conv4_pool1_interp"
  interp_param {
    height: 37
    width: 12
  }
}

layer {
  name: "conv4_pool2"
  type: "Pooling"
  bottom: "conv4_1_new"
  top: "conv4_pool2"
  pooling_param {
    pool: AVE
    kernel_h: 19
    kernel_w: 6
    stride_h: 19
    stride_w: 6
  }
}

layer {
  name: "conv4_pool2_interp"
  type: "Interp"
  bottom: "conv4_pool2"
  top: "conv4_pool2_interp"
  interp_param {
    height: 37
    width: 12
  }
}

layer {
  name: "conv4_pool3"
  type: "Pooling"
  bottom: "conv4_1_new"
  top: "conv4_pool3"
  pooling_param {
    pool: AVE
    kernel_h: 9
    kernel_w: 3
    stride_h: 9
    stride_w: 3
  }
}

layer {
  name: "conv4_pool3_interp"
  type: "Interp"
  bottom: "conv4_pool3"
  top: "conv4_pool3_interp"
  interp_param {
    height: 37
    width: 12
  }
}

layer {
  name: "conv4_pool4"
  type: "Pooling"
  bottom: "conv4_1_new"
  top: "conv4_pool4"
  pooling_param {
    pool: AVE
    kernel_h: 3
    kernel_w: 1
    stride_h: 3
    stride_w: 1
  }
}

layer {
  name: "conv4_pool4_interp"
  type: "Interp"
  bottom: "conv4_pool4"
  top: "conv4_pool4_interp"
  interp_param {
    height: 37
    width: 12
  }
}

layer {
  name: "conv4_concat"
  type: "Concat"
  bottom: "pool3_stage1_new"
  bottom: "conv4_pool1_interp"
  bottom: "conv4_pool2_interp"
  bottom: "conv4_pool3_interp"
  bottom: "conv4_pool4_interp"
  top: "conv4_concat"
}

##########################################################################



layer {
  name: "conv5_5_CPM_L2"
  type: "Convolution"
  bottom: "conv4_concat"
  top: "conv5_5_CPM_L2"
  param { lr_mult: 0 decay_mult: 0 }
  param { lr_mult: 0 decay_mult: 0 }
  convolution_param {
    num_output: 7
    pad: 0
    kernel_size: 1
   
  }
}





###################################upsampling layer###############################################################

layer {
  name: 'get_coodinate'
  type: 'Python'
  bottom: 'conv5_5_CPM_L2'
  top: 'get_coodinate'
  python_param {
    module: 'get_peaks_and_patches_coodinate'
    layer: 'Get_peaks_and_patches_coodinate'
  }
}

layer {
  name: 'crop_feature_patches'
  type: 'Python'
  bottom: 'get_coodinate'
  bottom: 'conv1_1_new'
  top: 'crop_feature_patches'
  python_param {
    module: 'crop_patches'
    layer: 'Crop_patches'
  }
}

layer {
  name: "conv6_1_new"
  type: "Convolution"
  bottom: "crop_feature_patches"
  top: "conv6_1_new"
  propagate_down: 0
  param {
    lr_mult: 1.0
    decay_mult: 1
  }
  param {
    lr_mult: 2.0
    decay_mult: 0
  }
  convolution_param {
    num_output: 32
    pad: 1
    kernel_size: 3
    weight_filler {
      type: "msra"
      std: 0.01
    }
    bias_filler {
      type: "constant"
    }
  }
}
layer {
  name: "relu6_1_new"
  type: "ReLU"
  bottom: "conv6_1_new"
  top: "conv6_1_new"
}

layer {
  name: "conv6_11_new"
  type: "Convolution"
  bottom: "conv6_1_new"
  top: "conv6_11_new"
  propagate_down: 0
  param {
    lr_mult: 1.0
    decay_mult: 1
  }
  param {
    lr_mult: 2.0
    decay_mult: 0
  }
  convolution_param {
    num_output: 32
    pad: 1
    kernel_size: 3
    weight_filler {
      type: "msra"
      std: 0.01
    }
    bias_filler {
      type: "constant"
    }
  }
}
layer {
  name: "relu6_11_new"
  type: "ReLU"
  bottom: "conv6_11_new"
  top: "conv6_11_new"
}

layer {
  name: "conv6_12_new"
  type: "Convolution"
  bottom: "conv6_11_new"
  top: "conv6_12_new"
  propagate_down: 0
  param {
    lr_mult: 1.0
    decay_mult: 1
  }
  param {
    lr_mult: 2.0
    decay_mult: 0
  }
  convolution_param {
    num_output: 32
    pad: 1
    kernel_size: 3
    weight_filler {
      type: "msra"
      std: 0.01
    }
    bias_filler {
      type: "constant"
    }
  }
}
layer {
  name: "relu6_12_new"
  type: "ReLU"
  bottom: "conv6_12_new"
  top: "conv6_12_new"
}

layer {
  name: "conv6_2_new"
  type: "Convolution"
  bottom: "conv6_12_new"
  top: "conv6_2_new"
  param {
    lr_mult: 1.0
    decay_mult: 1
  }
  param {
    lr_mult: 2.0
    decay_mult: 0
  }
  convolution_param {
    num_output: 64
    pad: 1
    kernel_size: 3
    weight_filler {
      type: "msra"
      std: 0.01
    }
    bias_filler {
      type: "constant"
    }
  }
}
layer {
  name: "relu6_2_new"
  type: "ReLU"
  bottom: "conv6_2_new"
  top: "conv6_2_new"
}

layer {
  name: "conv6_3_new"
  type: "Convolution"
  bottom: "conv6_2_new"
  top: "conv6_3_new"
  param {
    lr_mult: 1.0
    decay_mult: 1
  }
  param {
    lr_mult: 2.0
    decay_mult: 0
  }
  convolution_param {
    num_output: 7
    pad: 1
    kernel_size: 3
    weight_filler {
      type: "msra"
      std: 0.01
    }
    bias_filler {
      type: "constant"
    }
  }
}
layer {
  name: "relu6_3_new"
  type: "ReLU"
  bottom: "conv6_3_new"
  top: "conv6_3_new"
}


###################################upsampling layer###############################################################




